Loading saved model...
Model: "model_1"
__________________________________________________________________________________________________
Layer (type)                    Output Shape         Param #     Connected to                     
==================================================================================================
input_1 (InputLayer)            (None, 10, 4)        0                                            
__________________________________________________________________________________________________
lambda_1 (Lambda)               (None, 9, 4)         0           input_1[0][0]                    
__________________________________________________________________________________________________
lstm_1 (LSTM)                   (None, 9, 128)       68096       lambda_1[0][0]                   
__________________________________________________________________________________________________
lstm_2 (LSTM)                   (None, 9, 128)       131584      lstm_1[0][0]                     
__________________________________________________________________________________________________
flatten_1 (Flatten)             (None, 1152)         0           lstm_2[0][0]                     
__________________________________________________________________________________________________
dropout_1 (Dropout)             (None, 1152)         0           flatten_1[0][0]                  
__________________________________________________________________________________________________
dense_1 (Dense)                 (None, 256)          295168      dropout_1[0][0]                  
__________________________________________________________________________________________________
dropout_2 (Dropout)             (None, 256)          0           dense_1[0][0]                    
__________________________________________________________________________________________________
dense_2 (Dense)                 (None, 128)          32896       dropout_2[0][0]                  
__________________________________________________________________________________________________
dense_3 (Dense)                 (None, 3)            387         dense_2[0][0]                    
__________________________________________________________________________________________________
reshape_1 (Reshape)             (None, 3, 1)         0           dense_3[0][0]                    
__________________________________________________________________________________________________
lambda_2 (Lambda)               (None, 10, 4)        0           input_1[0][0]                    
                                                                 reshape_1[0][0]                  
==================================================================================================
Total params: 528,131
Trainable params: 528,131
Non-trainable params: 0
__________________________________________________________________________________________________
…
